…
s result, you can checkout demo file under `examples/draw_3d_box.py`**;\n\n\n- **2019-01-25**: We just adding network visualization tool for **pytorch** now!! How does it look? Simply print out *every layer network with output shape*,  I believe this is really helpful for people to visualize their models!\n\n  ```\n  ➜  mask_yolo3 git:(master) ✗ python3 tests.py\n  ----------------------------------------------------------------\n          Layer (type)               Output Shape         Param #\n  ================================================================\n              Conv2d-1         [-1, 64, 224, 224]           1,792\n                ReLU-2         [-1, 64, 224, 224]               0\n                .........\n             Linear-35                 [-1, 4096]      16,781,312\n               ReLU-36                 [-1, 4096]               0\n            Dropout-37                 [-1, 4096]               0\n             Linear-38                 [-1, 1000]       4,097,000\n  ================================================================\n  Total params: 138,357,544\n  Trainable params: 138,357,544\n  Non-trainable params: 0\n  ----------------------------------------------------------------\n  Input size (MB): 0.19\n  Forward/backward pass size (MB): 218.59\n  Params size (MB): 527.79\n  Estimated Total Size (MB): 746.57\n  --------------------------------------
…
