…
r each data point.\nDR_predict_proba = DR.predict_proba(X_test)\n```\n\n## Model architecture\n\nAs an example, when using `number_neurons = 500` input neurons and 2 predictable classes, the model will automatically have this architecture.\n\n```sql\nModel: \"DatRet with number_neurons = 500\"\n_________________________________________________________________\n Layer (type)                Output Shape              Param #   \n=================================================================\n input_1 (InputLayer)        [(None, X_train.shape[0)]      0         \n\n dense (Dense)               (None, 500)               150500    \n\n dense_1 (Dense)             (None, 250)               125250    \n\n dense_2 (Dense)             (None, 125)               31375     \n\n dense_3 (Dense)             (None, 62)                7812      \n\n dense_4 (Dense)             (None, 31)                1953      \n\n dense_5 (Dense)             (None, 15)                480       \n\n dense_6 (Dense)             (None, 7)                 112       \n\n dense_7 (Dense)             (None, 3)                 24        \n\n dense_8 (Dense)             (None, 2)                 8         \n                       (2 predictable classes)                               \n=================================================================\nTotal params: 317,514\nTrainable params: 317,514\nNon-trainable params: 0\n_________________________________________________________________\n```\n\n---\n\n## Comparison of accuracy with classical machine learning methods\n\n- **DatRetClassifi
…
