…
,\n    mlp_ratio=3,\n    drop_path_rate=0.2,\n    data_format=\"channels_last\",\n    num_classes=100,\n    classifier_activation=\"softmax\",\n)\n```\n- Use a predefined GCViT configuration.\n```python\nfrom gcvit_tensorflow import GCViT\n\nmodel = GCViT(configuration=\"xxtiny\")\nmodel.build((None, 224, 224, 3))\nprint(model.summary())\n```\n```\nModel: \"xxtiny\"\n_________________________________________________________________\n Layer (type)                Output Shape              Param #   \n=================================================================\n patch_embed (PatchEmbed)    (None, 56, 56, 64)        45632     \n                                                                 \n pos_drop (Dropout)          (None, 56, 56, 64)        0         \n                                                                 \n levels/0 (GCViTLayer)       (None, 28, 28, 128)       185766    \n                                                                 \n levels/1 (GCViTLayer)       (None, 14, 14, 256)       693258    \n                                                                 \n levels/2 (GCViTLayer)       (None, 7, 7, 512)         5401104   \n                                                                 \n levels/3 (GCViTLayer)       (None, 7, 7, 512)         5400546   \n                                                                 \n norm (LayerNorm_)           (None, 7, 7, 512)         1024      \n                                                                 \n avgpool (AdaptiveAveragePoo  (None, 512, 1, 1)        0         \n ling2D)                                                         \n                                                                 \n head (Linear_)              (None, 1000)              513000    \n                                                                 \n=================================================================\nTotal params: 12,240,330\nTrainable params: 11,995,428\nNon-trainable params: 244,902\n_________________________________________________________________\n```\n- Train from scratch the model.\n```python    \n# Example\nmodel.compile(\n    optimizer=\"sgd\",\n  
…
