…
l_size=3), nn.ReLU(),\n    nn.Flatten(),\n    k4t.layers.Linear(10)\n)\n```\n\nA model containing `KerasLayer` needs an extra `.build(input_shape)` operation.\n\n```python\nmodel = k4t.Model(model).build([1, 28, 28])\n```\n\n#### Step3: Summary the model\n\n```python\nmodel.summary()\n```\n\n```txt\n=========================================================================================\nLayer (type:depth-idx)                   Output Shape              Param #\n=========================================================================================\n├─Conv2d*: 1-1                           [-1, 32, 26, 26]          320\n├─ReLU: 1-2                              [-1, 32, 26, 26]          --\n├─MaxPool2d: 1-3                         [-1, 32, 13, 13]          --\n├─Conv2d*: 1-4                           [-1, 64, 11, 11]          18,496\n├─ReLU: 1-5                              [-1, 64, 11, 11]          --\n├─Flatten: 1-6                           [-1, 7744]                --\n├─Linear*: 1-7                           [-1, 10]                  77,450\n=========================================================================================\nTotal params: 96,266\nTrainable params: 96,266\nNon-trainable params: 0\nTotal mult-adds (M): 2.50\n=========================================================================================\n```\n\n#### Step4: Config optimizer, loss and metrics\n\n```python\nmodel.compile(optimizer='adam', loss=nn.CrossEnt
…
