…
n=\"relu\"),\n              layers.MaxPooling2D(pool_size=(2, 2)),\n              layers.Flatten(),\n              layers.Dropout(0.5),\n              layers.Dense(num_classes, activation=\"softmax\"),\n          ]\n      )\n      return model\n\n  model = build_model()\n  model.summary()\n\n.. code-block::\n\n  Model: \"batch_optimized_sequential_model\"\n  _________________________________________________________________\n   Layer (type)                   Output Shape              Param #\n  =================================================================\n   conv2d (Conv2D)                (None, 26, 26, 32)        320\n\n   max_pooling2d (MaxPooling2D)   (None, 13, 13, 32)        0\n\n   conv2d_1 (Conv2D)              (None, 11, 11, 64)        18496\n\n   max_pooling2d_1 (MaxPooling2D) (None, 5, 5, 64)          0\n\n   flatten (Flatten)              (None, 1600)              0\n\n   dropout (Dropout)              (None, 1600)              0\n\n   dense (Dense)                  (None, 10)                16010\n\n  =================================================================\n  Total params: 34,826\n  Trainable params: 34,826\n  Non-trainable params: 0\n  _________________________________________________________________\n\n**Train the Model**\n\nWe use this example train the model by running a combination of different algorithms.\nWe start by running ADAM for 1 epoch, and then using this solution 
…
