…
depthwise=True,\n      strides=[1, 1],\n      dilations=[8, 8],\n      kernel_size=[2, 2],\n      padding='final'\n  ),\n  spnk.layers.SpatialToRegions(),\n  # Class roots\n  spnk.layers.DenseSum(num_sums=10),\n  spnk.layers.RootSum(return_weighted_child_logits=True)\n])\n\nsum_product_network.summary(line_length=100)\n```\n\nWhich produces:\n```\nModel: \"sequential\"\n_________________________________________________________________\nLayer (type)                 Output Shape              Param #\n=================================================================\nnormal_leaf (NormalLeaf)     (None, 28, 28, 16)        25088\n_________________________________________________________________\nconv2d_product (Conv2DProduc (None, 14, 14, 16)        4\n_________________________________________________________________\nlocal2d_sum (Local2DSum)     (None, 14, 14, 16)        50176\n_________________________________________________________________\nconv2d_product_1 (Conv2DProd (None, 7, 7, 16)          4\n_________________________________________________________________\nlocal2d_sum_1 (Local2DSum)   (None, 7, 7, 32)          25088\n_________________________________________________________________\nconv2d_product_2 (Conv2DProd (None, 8, 8, 32)          4\n_________________________________________________________________\nlocal2d_sum_2 (Local2DSum)   (None, 8, 8, 32)          65536\n_________________________________________________________________\nconv2d_product_3 (Conv2DProd (None, 10, 10, 32)        4\n_________________________________________________________________\nlocal2d_sum_3 (Local2DSum)   (None, 10, 10, 64)        204800\n_________________________________________________________________\nconv2d_product_4 (Conv2DProd (None, 14, 14, 64)        4\n_________________________________________________________________\nlocal2d_sum_4 (Local2DSum)   (None, 14, 14, 64)        802816\n_________________________________________________________________\nconv2d_product_5 (Conv2DProd (None, 8, 8, 64)          4\n_________________________________________________________________\nspatial_to_regions (SpatialT (None, 1, 1, 4096)        0\n_________________________________________________________________\ndense_sum (DenseSum)         (None, 1, 1, 10)          40960\n_________________________________________________________________\nroot_sum (RootSum)           (None, 10)                10\n=================================================================\nTotal params: 1,214,498\nTrainable params: 1,201,930\nNon-trainable params: 12,568\n_________________________________________________________________\n```\n\n## TODOs\n- Structure learning\n- Advanced regularization e.g. pruning or auxiliary losses on weight accumulators\n",
    "description_content_type": "text/markdown",
    "docs_url": null,
…
