…
\n      bn_1st=True\n      zero_bn=True\n      stem_sizes=[32, 32, 64]\n      stem_pool=\"MaxPool2d {'kernel_size': 3, 'stride': 2, 'padding': 1}\"\n      init_cnn='init_cnn'\n      make_stem='make_stem'\n      make_layer='make_layer'\n      make_body='make_body'\n      make_head='make_head')\n    <pre>\n</details>\n\nNow we have model constructor, default setting as xresnet18. And we can get model after call it.\n\n\n```python\n\nmodel = mc()\nmodel\n```\n<details> <summary>output</summary>  \n    <pre>ModelConstructor(\n      (stem): Sequential(\n        (conv_0): ConvBnAct(\n          (conv): Conv2d(3, 32, kernel_size=(3, 3), stride=(2, 2), padding=(1, 1), bias=False)\n          (bn): BatchNorm2d(32, eps=1e-05, momentum=0.1, affine=True, track_running_stats=True)\n          (act_fn): ReLU(inplace=True)\n        )\n        (conv_1): ConvBnAct(\n          (conv): Conv2d(32, 32, kernel_size=(3, 3), stride=(1, 1), padding=(1, 1), bias=False)\n          (bn): BatchNorm2d(32, eps=1e-05, momentum=0.1, affine=True, track_running_stats=True)\n          (act_fn): ReLU(inplace=True)\n        )\n        (conv_2): ConvBnAct(\n          (conv): Conv2d(32, 64, kernel_size=(3, 3), stride=(1, 1), padding=(1, 1), bias=False)\n          (bn): BatchNorm2d(64, eps=1e-05, momentum=0.1, affine=True, track_running_stats=True)\n          (act_fn): ReLU(inplace=True)\n        )\n        (stem_pool): MaxPool2d(kernel_size=3, stride=2, padding=1, dilation=1, ceil_mode=False)\n      )\n      (body): Sequential(\n        (l_0): Sequential(\n          (bl_0): ResBlock(\n            (convs): Sequential(\n              (conv_0): ConvBnAct(\n                (conv): Conv2d(64, 64, kernel_size=(3, 3), stride=(1, 1), padding=(1, 1), bias=False)\n                (bn): BatchNorm2d(64, eps=1e-05, momentum=0.1, affine=True, track_running_stats=True)\n                (act_fn): ReLU(inplace=True)\n              )\n              (conv_1): ConvBnAct(\n                (conv): Conv2d(64, 64, kernel_size=(3, 3), stride=(1, 1), padding=(1, 1), bias=False)\n                (bn): BatchNorm2d(64, eps=1e-05, momentum=0.1, affine=True, track_running_stats=True)\n              )\n            )\n            (act_fn): ReLU(inplace=True)\n          )\n          (bl_1): ResBlock(\n            (convs): Sequential(\n              (conv_0): ConvBnAct(\n                (conv): Conv2d(64, 64, kernel_size=(3, 3), stride=(1, 1), padding=(1, 1), bias=False)\n                (bn): BatchNorm2d(64, eps=1e-05, momentum=0.1, affine=True, track_running_stats=True)\n                (act_fn): ReLU(inplace=True)\n              )\n              (conv_1): ConvBnAct(\n                (conv): Conv2d(64, 64, kernel_size=(3, 3), stride=(1, 1), padding=(1, 1), bias=False)\n                (bn): BatchNorm2d(64, eps=1e-05, momentum=0.1, affine=True, track_running_stats=True)\n              )\n            )\n            (act_fn): ReLU(inplace=True)\n          )\n        )\n        (l_1): Sequential(\n          (bl_0): ResBlock(\n            (convs): Sequential(\n              (conv_0): ConvBnAct(\n                (conv): Conv2d(64, 128, kernel_size=(3, 3), stride=(2, 2), padding=(1, 1), bias=False)\n                (bn): BatchNorm2d(128, eps=1e-05, momentum=0.1, affine=True, track_running_stats=True)\n                (act_fn): ReLU(inplace=True)\n              )\n              (conv_1): ConvBnAct(\n                (conv): Conv2d(128, 128, kernel_size=(3, 3), stride=(1, 1), padding=(1, 1), bias=False)\n                (bn): BatchNorm2d(128, eps=1e-05, momentum=0.1, affine=True, track_running_stats=True)\n              )\n            )\n            (id_conv): Sequential(\n              (pool): AvgPool2d(kernel_size=2, stride=2, padding=0)\n              (id_conv): ConvBnAct(\n                (conv): Conv2d(64, 128, kernel_size=(1, 1), stride=(1, 1), bias=False)\n                (bn): BatchNorm2d(128, eps=1e-05, momentum=0.1, affine=True, track_running_stats=True)\n              )\n            )\n            (act_fn): ReLU(inplace=True)\n          )\n          (bl_1): ResBlock(\n            (convs): Sequential(\n              (conv_0): ConvBnAct(\n                (conv): Conv2d(128, 128, kernel_size=(3, 3), stride=(1, 1), padding=(1, 1), bias=False)\n                (bn): BatchNorm2d(128, eps=1e-05, momentum=0.1, affine=True, track_running_stats=True)\n                (act_fn): ReLU(inplace=True)\n              )\n              (conv_1): ConvBnAct(\n                (conv): Conv2d(128, 128, kernel_size=(3, 3), stride=(1, 1), padding=(1, 1), bias=False)\n                (bn): BatchNorm2d(128, eps=1e-05, momentum=0.1, affine=True, track_running_stats=True)\n              )\n            )\n            (act_fn): ReLU(inplace=True)\n          )\n        )\n        (l_2): Sequential(\n          (bl_0): ResBlock(\n            (convs): Sequential(\n              (conv_0): ConvBnAct(\n                (conv): Conv2d(128, 256, kernel_size=(3, 3), stride=(2, 2), padding=(1, 1), bias=False)\n                (bn): BatchNorm2d(256, eps=1e-05, momentum=0.1, affine=True, track_running_stats=True)\n                (act_fn): ReLU(inplace=True)\n              )\n              (conv_1): ConvBnAct(\n                (conv): Conv2d(256, 256, kernel_size=(3, 3), stride=(1, 1), padding=(1, 1), bias=False)\n                (bn): BatchNorm2d(256, eps=1e-05, momentum=0.1, affine=True, track_running_stats=True)\n              )\n            )\n            (id_conv): Sequential(\n              (pool): AvgPool2d(kernel_size=2, stride=2, padding=0)\n              (id_conv): ConvBnAct(\n                (conv): Conv2d(128, 256, kernel_size=(1, 1), stride=(1, 1), bias=False)\n                (bn): BatchNorm2d(256, eps=1e-05, momentum=0.1, affine=True, track_running_stats=True)\n              )\n            )\n            (act_fn): ReLU(inplace=True)\n          )\n          (bl_1): ResBlock(\n            (convs): Sequential(\n              (conv_0): ConvBnAct(\n                (conv): Conv2d(256, 256, kernel_size=(3, 3), stride=(1, 1), padding=(1, 1), bias=False)\n                (bn): BatchNorm2d(256, eps=1e-05, momentum=0.1, affine=True, track_running_stats=True)\n                (act_fn): ReLU(inplace=True)\n              )\n              (conv_1): ConvBnAct(\n                (conv): Conv2d(256, 256, kernel_size=(3, 3), stride=(1, 1), padding=(1, 1), bias=False)\n                (bn): BatchNorm2d(256, eps=1e-05, momentum=0.1, affine=True, track_running_stats=True)\n              )\n            )\n            (act_fn): ReLU(inplace=True)\n          )\n        )\n        (l_3): Sequential(\n          (bl_0): ResBlock(\n            (convs): Sequential(\n              (conv_0): ConvBnAct(\n                (conv): Conv2d(256, 512, kernel_size=(3, 3), stride=(2, 2), padding=(1, 1), bias=False)\n                (bn): BatchNorm2d(512, eps=1e-05, momentum=0.1, affine=True, track_running_stats=True)\n                (act_fn): ReLU(inplace=True)\n              )\n              (conv_1): ConvBnAct(\n                (conv): Conv2d(512, 512, kernel_size=(3, 3), stride=(1, 1), padding=(1, 1), bias=False)\n                (bn): BatchNorm2d(512, eps=1e-05, momentum=0.1, affine=True, track_running_stats=True)\n              )\n            )\n            (id_conv): Sequential(\n              (pool): AvgPool2d(kernel_size=2, stride=2, padding=0)\n              (id_conv): ConvBnAct(\n                (conv): Conv2d(256, 512, kernel_size=(1, 1), stride=(1, 1), bias=False)\n                (bn): BatchNorm2d(512, eps=1e-05, momentum=0.1, affine=True, track_running_stats=True)\n              )\n            )\n            (act_fn): ReLU(inplace=True)\n          )\n          (bl_1): ResBlock(\n            (convs): Sequential(\n              (conv_0): ConvBnAct(\n                (conv): Conv2d(512, 512, kernel_size=(3, 3), stride=(1, 1), padding=(1, 1), bias=False)\n                (bn): BatchNorm2d(512, eps=1e-05, momentum=0.1, affine=True, track_running_stats=True)\n                (act_fn): ReLU(inplace=True)\n              )\n              (conv_1): ConvBnAct(\n                (conv): Conv2d(512, 512, kernel_size=(3, 3), stride=(1, 1), padding=(1, 1), bias=False)\n                (bn): BatchNorm2d(512, eps=1e-05, momentum=0.1, affine=True, track_running_stats=True)\n              )\n            )\n            (act_fn): ReLU(inplace=True)\n          )\n        )\n      )\n      (head): Sequential(\n        (pool): AdaptiveAvgPool2d(output_size=1)\n        (flat): Flatten(start_dim=1, end_dim=-1)\n        (fc): Linear(in_features=512, out_features=1000, bias=True)\n      )\n    )<pre>\n</details>\n\n\n\nIf you want to change model, just change constructor parameters.  \nLets create xresnet50.\n\n\n```python\nmc.expansion = 4\nmc.layers = [3,4,6,3]\n```\n\nNow we can look at model parts - stem, body, head.  \n\n\n```python\n\nmc.body\n```\n<details> <summary>output</summary>  \n    <pre>Sequential(\n      (l_0): Sequential(\n        (bl_0): ResBlock(\n          (convs): Sequential(\n            (conv_0): ConvBnAct(\n              (conv): Conv2d(64, 64, kernel_size=(1, 1), stride=(1, 1), bias=False)\n              (bn): BatchNorm2d(64, eps=1e-05, momentum=0.1, affine=True, track_running_stats=True)\n              (act_fn): ReLU(inplace=True)\n            )\n            (conv_1): ConvBnAct(\n              (conv): Conv2d(64, 64, kernel_size=(3, 3), stride=(1, 1), padding=(1, 1), bias=False)\n              (bn): BatchNorm2d(64, eps=1e-05, momentum=0.1, affine=True, track_running_stats=True)\n              (act_fn): ReLU(inplace=True)\n            )\n            (conv_2): ConvBnAct(\n              (conv): Conv2d(64, 256, kernel_size=(1, 1), stride=(1, 1), bias=False)\n              (bn): BatchNorm2d(256, eps=1e-05, momentum=0.1, affine=True, track_running_stats=True)\n            )\n          )\n          (id_conv): Sequential(\n            (id_conv): ConvBnAct(\n              (conv): Conv2d(64, 256, kernel_size=(1, 1), stride=(1, 1), bias=False)\n              (bn): BatchNorm2d(256, eps=1e-05, momentum=0.1, affine=True, track_running_stats=True)\n            )\n          )\n          (act_fn): ReLU(inplace=True)\n        )\n        (bl_1): ResBlock(\n          (convs): Sequential(\n            (conv_0): ConvBnAct(\n              (conv): Conv2d(256, 64, kernel_size=(1, 1), stride=(1, 1), bias=False)\n              (bn): BatchNorm2d(64, eps=1e-05, momentum=0.1, affine=True, track_running_stats=True)\n              (act_fn): ReLU(inplace=True)\n            )\n            (conv_1): ConvBnAct(\n              (conv): Conv2d(64, 64, kernel_size=(3, 3), stride=(1, 1), padding=(1, 1), bias=False)\n              (bn): BatchNorm2d(64, eps=1e-05, momentum=0.1, affine=True, track_running_stats=True)\n              (act_fn): ReLU(inplace=True)\n            )\n            (conv_2): ConvBnAct(\n              (conv): Conv2d(64, 256, kernel_size=(1, 1), stride=(1, 1), bias=False)\n              (bn): BatchNorm2d(256, eps=1e-05, momentum=0.1, affine=True, track_running_stats=True)\n            )\n          )\n          (act_fn): ReLU(inplace=True)\n        )\n        (bl_2): ResBlock(\n          (convs): Sequential(\n            (conv_0): ConvBnAct(\n              (conv): Conv2d(256, 64, kernel_size=(1, 1), stride=(1, 1), bias=False)\n              (bn): BatchNorm2d(64, eps=1e-05, momentum=0.1, affine=True, track_running_stats=True)\n              (act_fn): ReLU(inplace=True)\n            )\n            (conv_1): ConvBnAct(\n              (conv): Conv2d(64, 64, kernel_size=(3, 3), stride=(1, 1), padding=(1, 1), bias=False)\n              (bn): BatchNorm2d(64, eps=1e-05, momentum=0.1, affine=True, track_running_stats=True)\n              (act_fn): ReLU(inplace=True)\n            )\n            (conv_2): ConvBnAct(\n              (conv): Conv2d(64, 256, kernel_size=(1, 1), stride=(1, 1), bias=False)\n              (bn): BatchNorm2d(256, eps=1e-05, momentum=0.1, affine=True, track_running_stats=True)\n            )\n          )\n          (act_fn): ReLU(inplace=True)\n        )\n      )\n      (l_1): Sequential(\n        (bl_0): ResBlock(\n          (convs): Sequential(\n            (conv_0): ConvBnAct(\n              (conv): Conv2d(256, 128, kernel_size=(1, 1), stride=(1, 1), bias=False)\n              (bn): BatchNorm2d(128, eps=1e-05, momentum=0.1, affine=True, track_running_stats=True)\n              (act_fn): ReLU(inplace=True)\n            )\n            (conv_1): ConvBnAct(\n              (conv): Conv2d(128, 128, kernel_size=(3, 3), stride=(2, 2), padding=(1, 1), bias=False)\n              (bn): BatchNorm2d(128, eps=1e-05, momentum=0.1, affine=True, track_running_stats=True)\n              (act_fn): ReLU(inplace=True)\n            )\n            (conv_2): ConvBnAct(\n              (conv): Conv2d(128, 512, kernel_size=(1, 1), stride=(1, 1), bias=False)\n              (bn): BatchNorm2d(512, eps=1e-05, momentum=0.1, affine=True, track_running_stats=True)\n            )\n          )\n          (id_conv): Sequential(\n            (pool): AvgPool2d(kernel_size=2, stride=2, padding=0)\n            (id_conv): ConvBnAct(\n              (conv): Conv2d(256, 512, kernel_size=(1, 1), stride=(1, 1), bias=False)\n              (bn): BatchNorm2d(512, eps=1e-05, momentum=0.1, affine=True, track_running_stats=True)\n            )\n          )\n          (act_fn): ReLU(inplace=True)\n        )\n        (bl_1): ResBlock(\n          (convs): Sequential(\n            (conv_0): ConvBnAct(\n              (conv): Conv2d(512, 128, kernel_size=(1, 1), stride=(1, 1), bias=False)\n              (bn): BatchNorm2d(128, eps=1e-05, momentum=0.1, affine=True, track_running_stats=True)\n              (act_fn): ReLU(inplace=True)\n            )\n            (conv_1): ConvBnAct(\n              (conv): Conv2d(128, 128, kernel_size=(3, 3), stride=(1, 1), padding=(1, 1), bias=False)\n              (bn): BatchNorm2d(128, eps=1e-05, momentum=0.1, affine=True, track_running_stats=True)\n              (act_fn): ReLU(inplace=True)\n            )\n            (conv_2): ConvBnAct(\n              (conv): Conv2d(128, 512, kernel_size=(1, 1), stride=(1, 1), bias=False)\n              (bn): BatchNorm2d(512, eps=1e-05, momentum=0.1, affine=True, track_running_stats=True)\n            )\n          )\n          (act_fn): ReLU(inplace=True)\n        )\n        (bl_2): ResBlock(\n          (convs): Sequential(\n            (conv_0): ConvBnAct(\n              (conv): Conv2d(512, 128, kernel_size=(1, 1), stride=(1, 1), bias=False)\n              (bn): BatchNorm2d(128, eps=1e-05, momentum=0.1, affine=True, track_running_stats=True)\n              (act_fn): ReLU(inplace=True)\n            )\n            (conv_1): ConvBnAct(\n              (conv): Conv2d(128, 128, kernel_size=(3, 3), stride=(1, 1), padding=(1, 1), bias=False)\n              (bn): BatchNorm2d(128, eps=1e-05, momentum=0.1, affine=True, track_running_stats=True)\n              (act_fn): ReLU(inplace=True)\n            )\n            (conv_2): ConvBnAct(\n              (conv): Conv2d(128, 512, kernel_size=(1, 1), stride=(1, 1), bias=False)\n              (bn): BatchNorm2d(512, eps=1e-05, momentum=0.1, affine=True, track_running_stats=True)\n            )\n          )\n          (act_fn): ReLU(inplace=True)\n        )\n        (bl_3): ResBlock(\n          (convs): Sequential(\n            (conv_0): ConvBnAct(\n              (conv): Conv2d(512, 128, kernel_size=(1, 1), stride=(1, 1), bias=False)\n              (bn): BatchNorm2d(128, eps=1e-05, momentum=0.1, affine=True, track_running_stats=True)\n              (act_fn): ReLU(inplace=True)\n            )\n            (conv_1): ConvBnAct(\n              (conv): Conv2d(128, 128, kernel_size=(3, 3), stride=(1, 1), padding=(1, 1), bias=False)\n              (bn): BatchNorm2d(128, eps=1e-05, momentum=0.1, affine=True, track_running_stats=True)\n              (act_fn): ReLU(inplace=True)\n            )\n            (conv_2): ConvBnAct(\n              (conv): Conv2d(128, 512, kernel_size=(1, 1), stride=(1, 1), bias=False)\n              (bn): BatchNorm2d(512, eps=1e-05, momentum=0.1, affine=True, track_running_stats=True)\n            )\n          )\n          (act_fn): ReLU(inplace=True)\n        )\n      )\n      (l_2): Sequential(\n        (bl_0): ResBlock(\n          (convs): Sequential(\n            (conv_0): ConvBnAct(\n              (conv): Conv2d(512, 256, kernel_size=(1, 1), stride=(1, 1), bias=False)\n              (bn): BatchNorm2d(256, eps=1e-05, momentum=0.1, affine=True, track_running_stats=True)\n              (act_fn): ReLU(inplace=True)\n            )\n            (conv_1): ConvBnAct(\n              (conv): Conv2d(256, 256, kernel_size=(3, 3), stride=(2, 2), padding=(1, 1), bias=False)\n              (bn): BatchNorm2d(256, eps=1e-05, momentum=0.1, affine=True, track_running_stats=True)\n              (act_fn): ReLU(inplace=True)\n            )\n            (conv_2): ConvBnAct(\n              (conv): Conv2d(256, 1024, kernel_size=(1, 1), stride=(1, 1), bias=False)\n              (bn): BatchNorm2d(1024, eps=1e-05, momentum=0.1, affine=True, track_running_stats=True)\n            )\n          )\n          (id_conv): Sequential(\n            (pool): AvgPool2d(kernel_size=2, stride=2, padding=0)\n            (id_conv): ConvBnAct(\n              (conv): Conv2d(512, 1024, kernel_size=(1, 1), stride=(1, 1), bias=False)\n              (bn): BatchNorm2d(1024, eps=1e-05, momentum=0.1, affine=True, track_running_stats=True)\n            )\n          )\n          (act_fn): ReLU(inplace=True)\n        )\n        (bl_1): ResBlock(\n          (convs): Sequential(\n            (conv_0): ConvBnAct(\n              (conv): Conv2d(1024, 256, kernel_size=(1, 1), stride=(1, 1), bias=False)\n              (bn): BatchNorm2d(256, eps=1e-05, momentum=0.1, affine=True, track_running_stats=True)\n              (act_fn): ReLU(inplace=True)\n            )\n            (conv_1): ConvBnAct(\n              (conv): Conv2d(256, 256, kernel_size=(3, 3), stride=(1, 1), padding=(1, 1), bias=False)\n              (bn): BatchNorm2d(256, eps=1e-05, momentum=0.1, affine=True, track_running_stats=True)\n              (act_fn): ReLU(inplace=True)\n            )\n            (conv_2): ConvBnAct(\n              (conv): Conv2d(256, 1024, kernel_size=(1, 1), stride=(1, 1), bias=False)\n              (bn): BatchNorm2d(1024, eps=1e-05, momentum=0.1, affine=True, track_running_stats=True)\n            )\n          )\n          (act_fn): ReLU(inplace=True)\n        )\n        (bl_2): ResBlock(\n          (convs): Sequential(\n            (conv_0): ConvBnAct(\n              (conv): Conv2d(1024, 256, kernel_size=(1, 1), stride=(1, 1), bias=False)\n              (bn): BatchNorm2d(256, eps=1e-05, momentum=0.1, affine=True, track_running_stats=True)\n              (act_fn): ReLU(inplace=True)\n            )\n            (conv_1): ConvBnAct(\n              (conv): Conv2d(256, 256, kernel_size=(3, 3), stride=(1, 1), padding=(1, 1), bias=False)\n              (bn): BatchNorm2d(256, eps=1e-05, momentum=0.1, affine=True, track_running_stats=True)\n              (act_fn): ReLU(inplace=True)\n            )\n            (conv_2): ConvBnAct(\n              (conv): Conv2d(256, 1024, kernel_size=(1, 1), stride=(1, 1), bias=False)\n              (bn): BatchNorm2d(1024, eps=1e-05, momentum=0.1, affine=True, track_running_stats=True)\n            )\n          )\n          (act_fn): ReLU(inplace=True)\n        )\n        (bl_3): ResBlock(\n          (convs): Sequential(\n            (conv_0): ConvBnAct(\n              (conv): Conv2d(1024, 256, kernel_size=(1, 1), stride=(1, 1), bias=False)\n              (bn): BatchNorm2d(256, eps=1e-05, momentum=0.1, affine=True, track_running_stats=True)\n              (act_fn): ReLU(inplace=True)\n            )\n            (conv_1): ConvBnAct(\n              (conv): Conv2d(256, 256, kernel_size=(3, 3), stride=(1, 1), padding=(1, 1), bias=False)\n              (bn): BatchNorm2d(256, eps=1e-05, momentum=0.1, affine=True, track_running_stats=True)\n              (act_fn): ReLU(inplace=True)\n            )\n            (conv_2): ConvBnAct(\n              (conv): Conv2d(256, 1024, kernel_size=(1, 1), stride=(1, 1), bias=False)\n              (bn): BatchNorm2d(1024, eps=1e-05, momentum=0.1, affine=True, track_running_stats=True)\n            )\n          )\n          (act_fn): ReLU(inplace=True)\n        )\n        (bl_4): ResBlock(\n          (convs): Sequential(\n            (conv_0): ConvBnAct(\n              (conv): Conv2d(1024, 256, kernel_size=(1, 1), stride=(1, 1), bias=False)\n              (bn): BatchNorm2d(256, eps=1e-05, momentum=0.1, affine=True, track_running_stats=True)\n              (act_fn): ReLU(inplace=True)\n            )\n            (conv_1): ConvBnAct(\n              (conv): Conv2d(256, 256, kernel_size=(3, 3), stride=(1, 1), padding=(1, 1), bias=False)\n              (bn): BatchNorm2d(256, eps=1e-05, momentum=0.1, affine=True, track_running_stats=True)\n              (act_fn): ReLU(inplace=True)\n            )\n            (conv_2): ConvBnAct(\n              (conv): Conv2d(256, 1024, kernel_size=(1, 1), stride=(1, 1), bias=False)\n              (bn): BatchNorm2d(1024, eps=1e-05, momentum=0.1, affine=True, track_running_stats=True)\n            )\n          )\n          (act_fn): ReLU(inplace=True)\n        )\n        (bl_5): ResBlock(\n          (convs): Sequential(\n            (conv_0): ConvBnAct(\n              (conv): Conv2d(1024, 256, kernel_size=(1, 1), stride=(1, 1), bias=False)\n              (bn): BatchNorm2d(256, eps=1e-05, momentum=0.1, affine=True, track_running_stats=True)\n              (act_fn): ReLU(inplace=True)\n            )\n            (conv_1): ConvBnAct(\n              (conv): Conv2d(256, 256, kernel_size=(3, 3), stride=(1, 1), padding=(1, 1), bias=False)\n              (bn): BatchNorm2d(256, eps=1e-05, momentum=0.1, affine=True, track_running_stats=True)\n              (act_fn): ReLU(inplace=True)\n            )\n            (conv_2): ConvBnAct(\n              (conv): Conv2d(256, 1024, kernel_size=(1, 1), stride=(1, 1), bias=False)\n              (bn): BatchNorm2d(1024, eps=1e-05, momentum=0.1, affine=True, track_running_stats=True)\n            )\n          )\n          (act_fn): ReLU(inplace=True)\n        )\n      )\n      (l_3): Sequential(\n        (bl_0): ResBlock(\n          (convs): Sequential(\n            (conv_0): ConvBnAct(\n              (conv): Conv2d(1024, 512, kernel_size=(1, 1), stride=(1, 1), bias=False)\n              (bn): BatchNorm2d(512, eps=1e-05, momentum=0.1, affine=True, track_running_stats=True)\n              (act_fn): ReLU(inplace=True)\n            )\n            (conv_1): ConvBnAct(\n              (conv): Conv2d(512, 512, kernel_size=(3, 3), stride=(2, 2), padding=(1, 1), bias=False)\n              (bn): BatchNorm2d(512, eps=1e-05, momentum=0.1, affine=True, track_running_stats=True)\n              (act_fn): ReLU(inplace=True)\n            )\n            (conv_2): ConvBnAct(\n              (conv): Conv2d(512, 2048, kernel_size=(1, 1), stride=(1, 1), bias=False)\n              (bn): BatchNorm2d(2048, eps=1e-05, momentum=0.1, affine=True, track_running_stats=True)\n            )\n          )\n          (id_conv): Sequential(\n            (pool): AvgPool2d(kernel_size=2, stride=2, padding=0)\n            (id_conv): ConvBnAct(\n              (conv): Conv2d(1024, 2048, kernel_size=(1, 1), stride=(1, 1), bias=False)\n              (bn): BatchNorm2d(2048, eps=1e-05, momentum=0.1, affine=True, track_running_stats=True)\n            )\n          )\n          (act_fn): ReLU(inplace=True)\n        )\n        (bl_1): ResBlock(\n          (convs): Sequential(\n            (conv_0): ConvBnAct(\n              (conv): Conv2d(2048, 512, kernel_size=(1, 1), stride=(1, 1), bias=False)\n              (bn): BatchNorm2d(512, eps=1e-05, momentum=0.1, affine=True, track_running_stats=True)\n              (act_fn): ReLU(inplace=True)\n            )\n            (conv_1): ConvBnAct(\n              (conv): Conv2d(512, 512, kernel_size=(3, 3), stride=(1, 1), padding=(1, 1), bias=False)\n              (bn): BatchNorm2d(512, eps=1e-05, momentum=0.1, affine=True, track_running_stats=True)\n              (act_fn): ReLU(inplace=True)\n            )\n            (conv_2): ConvBnAct(\n              (conv): Conv2d(512, 2048, kernel_size=(1, 1), stride=(1, 1), bias=False)\n              (bn): BatchNorm2d(2048, eps=1e-05, momentum=0.1, affine=True, track_running_stats=True)\n            )\n          )\n          (act_fn): ReLU(inplace=True)\n        )\n        (bl_2): ResBlock(\n          (convs): Sequential(\n            (conv_0): ConvBnAct(\n              (conv): Conv2d(2048, 512, kernel_size=(1, 1), stride=(1, 1), bias=False)\n              (bn): BatchNorm2d(512, eps=1e-05, momentum=0.1, affine=True, track_running_stats=True)\n              (act_fn): ReLU(inplace=True)\n            )\n            (conv_1): ConvBnAct(\n              (conv): Conv2d(512, 512, kernel_size=(3, 3), stride=(1, 1), padding=(1, 1), bias=False)\n              (bn): BatchNorm2d(512, eps=1e-05, momentum=0.1, affine=True, track_running_stats=True)\n              (act_fn): ReLU(inplace=True)\n            )\n            (conv_2): ConvBnAct(\n              (conv): Conv2d(512, 2048, kernel_size=(1, 1), stride=(1, 1), bias=False)\n              (bn): BatchNorm2d(2048, eps=1e-05, momentum=0.1, affine=True, track_running_stats=True)\n            )\n          )\n          (act_fn): ReLU(inplace=True)\n        )\n      )\n    )<pre>\n</details>\n\n\n\n## Create constructor from config.\n\nAlternative we can create config first and than create constructor from it. \n\n\n```python\nfrom model_constructor import ModelCfg\n```\n\n\n```python\ncfg = ModelCfg()\npr
…
ish\n```\n\n\n```python\nmc\n```\n<details open> <summary>output</summary>  \n    <pre>MxResNet\n      in_chans: 3, num_classes: 1000\n      expansion: 1, groups: 1, dw: False, div_groups: None\n      act_fn: Mish, sa: False, se: False\n      stem sizes: [3, 32, 64, 64], stride on 0\n      body sizes [64, 128, 256, 512]\n      layers: [2, 2, 2, 2]<pre>\n</details>\n\n\n\nHere is model:  \n\n\n```python\n\nmc()\n```\n<details> <summary>output</summary>  \n    <pre>MxResNet(\n      stem_sizes: [3, 32, 64, 64], act_fn: Mish\n      (stem): Sequential(\n        (conv_0): ConvBnAct(\n          (conv): Conv2d(3, 3, kernel_size=(3, 3), stride=(2, 2), padding=(1, 1), bias=False)\n          (bn): BatchNorm2d(3, eps=1e-05, momentum=0.1, affine=True, track_running_stats=True)\n          (act_fn): Mish(inplace=True)\n        )\n        (conv_1): ConvBnAct(\n          (conv): Conv2d(3, 32, kernel_size=(3, 3), stride=(1, 1), padding=(1, 1), bias=False)\n          (bn): BatchNorm2d(32, eps=1e-05, momentum=0.1, affine=True, track_running_stats=True)\n          (act_fn): Mish(inplace=True)\n        )\n        (conv_2): ConvBnAct(\n          (conv): Conv2d(32, 64, kernel_size=(3, 3), stride=(1, 1), padding=(1, 1), bias=False)\n          (bn): BatchNorm2d(64, eps=1e-05, momentum=0.1, affine=True, track_running_stats=True)\n          (act_fn): Mish(inplace=True)\n        )\n        (conv_3): ConvBnAct(\n          (conv): Conv2d(64, 64, kernel_size=(3, 3), stride=(1, 1), padding=(1, 1), bias=False)\n          (bn): BatchNorm2d(64, eps=1e-05, momentum=0.1, affine=True, track_running_stats=True)\n          (act_fn): Mish(inplace=True)\n        )\n        (stem_pool): MaxPool2d(kernel_size=3, stride=2, padding=1, dilation=1, ceil_mode=False)\n      )\n      (body): Sequential(\n        (l_0): Sequential(\n          (bl_0): ResBlock(\n            (convs): Sequential(\n              (conv_0): ConvBnAct(\n                (conv): Conv2d(64, 64, kernel_size=(3, 3), stride=(1, 1), padding=(1, 1), bias=False)\n                (bn): BatchNorm2d(64, eps=1e-05, momentum=0.1, affine=True, track_running_stats=True)\n                (act_fn): Mish(inplace=True)\n              )\n              (conv_1): ConvBnAct(\n                (conv): Conv2d(64, 64, kernel_size=(3, 3), stride=(1, 1), padding=(1, 1), bias=False)\n                (bn): BatchNorm2d(64, eps=1e-05, momentum=0.1, affine=True, track_running_stats=True)\n              )\n            )\n            (act_fn): Mish(inplace=True)\n          )\n          (bl_1): ResBlock(\n            (convs): Sequential(\n              (conv_0): ConvBnAct(\n                (conv): Conv2d(64, 64, kernel_size=(3, 3), stride=(1, 1), padding=(1, 1), bias=False)\n                (bn): BatchNorm2d(64, eps=1e-05, momentum=0.1, affine=True, track_running_stats=True)\n                (act_fn): Mish(inplace=True)\n              )\n              (conv_1): ConvBnAct(\n                (conv): Conv2d(64, 64, kernel_size=(3, 3), stride=(1, 1), padding=(1, 1), bias=False)\n                (bn): BatchNorm2d(64, eps=1e-05, momentum=0.1, affine=True, track_running_stats=True)\n              )\n            )\n            (act_fn): Mish(inplace=True)\n          )\n        )\n        (l_1): Sequential(\n          (bl_0): ResBlock(\n            (convs): Sequential(\n              (conv_0): ConvBnAct(\n                (conv): Conv2d(64, 128, kernel_size=(3, 3), stride=(2, 2), padding=(1, 1), bias=False)\n                (bn): BatchNorm2d(128, eps=1e-05, momentum=0.1, affine=True, track_running_stats=True)\n                (act_fn): Mish(inplace=True)\n              )\n              (conv_1): ConvBnAct(\n                (conv): Conv2d(128, 128, kernel_size=(3, 3), stride=(1, 1), padding=(1, 1), bias=False)\n                (bn): BatchNorm2d(128, eps=1e-05, momentum=0.1, affine=True, track_running_stats=True)\n              )\n            )\n            (id_conv): Sequential(\n              (pool): AvgPool2d(kernel_size=2, stride=2, padding=0)\n              (id_conv): ConvBnAct(\n                (conv): Conv2d(64, 128, kernel_size=(1, 1), stride=(1, 1), bias=False)\n                (bn): BatchNorm2d(128, eps=1e-05, momentum=0.1, affine=True, track_running_stats=True)\n              )\n            )\n            (act_fn): Mish(inplace=True)\n          )\n          (bl_1): ResBlock(\n            (convs): Sequential(\n              (conv_0): ConvBnAct(\n                (conv): Conv2d(128, 128, kernel_size=(3, 3), stride=(1, 1), padding=(1, 1), bias=False)\n                (bn): BatchNorm2d(128, eps=1e-05, momentum=0.1, affine=True, track_running_stats=True)\n                (act_fn): Mish(inplace=True)\n              )\n              (conv_1): ConvBnAct(\n                (conv): Conv2d(128, 128, kernel_size=(3, 3), stride=(1, 1), padding=(1, 1), bias=False)\n                (bn): BatchNorm2d(128, eps=1e-05, momentum=0.1, affine=True, track_running_stats=True)\n              )\n            )\n            (act_fn): Mish(inplace=True)\n          )\n        )\n        (l_2): Sequential(\n          (bl_0): ResBlock(\n            (convs): Sequential(\n              (conv_0): ConvBnAct(\n                (conv): Conv2d(128, 256, kernel_size=(3, 3), stride=(2, 2), padding=(1, 1), bias=False)\n                (bn): BatchNorm2d(256, eps=1e-05, momentum=0.1, affine=True, track_running_stats=True)\n                (act_fn): Mish(inplace=True)\n              )\n              (conv_1): ConvBnAct(\n                (conv): Conv2d(256, 256, kernel_size=(3, 3), stride=(1, 1), padding=(1, 1), bias=False)\n                (bn): BatchNorm2d(256, eps=1e-05, momentum=0.1, affine=True, track_running_stats=True)\n              )\n            )\n            (id_conv): Sequential(\n              (pool): AvgPool2d(kernel_size=2, stride=2, padding=0)\n              (id_conv): ConvBnAct(\n                (conv): Conv2d(128, 256, kernel_size=(1, 1), stride=(1, 1), bias=False)\n                (bn): BatchNorm2d(256, eps=1e-05, momentum=0.1, affine=True, track_running_stats=True)\n              )\n            )\n            (act_fn): Mish(inplace=True)\n          )\n          (bl_1): ResBlock(\n            (convs): Sequential(\n              (conv_0): ConvBnAct(\n                (conv): Conv2d(256, 256, kernel_size=(3, 3), stride=(1, 1), padding=(1, 1), bias=False)\n                (bn): BatchNorm2d(256, eps=1e-05, momentum=0.1, affine=True, track_running_stats=True)\n                (act_fn): Mish(inplace=True)\n              )\n              (conv_1): ConvBnAct(\n                (conv): Conv2d(256, 256, kernel_size=(3, 3), stride=(1, 1), padding=(1, 1), bias=False)\n                (bn): BatchNorm2d(256, eps=1e-05, momentum=0.1, affine=True, track_running_stats=True)\n              )\n            )\n            (act_fn): Mish(inplace=True)\n          )\n        )\n        (l_3): Sequential(\n          (bl_0): ResBlock(\n            (convs): Sequential(\n              (conv_0): ConvBnAct(\n                (conv): Conv2d(256, 512, kernel_size=(3, 3), stride=(2, 2), padding=(1, 1), bias=False)\n                (bn): BatchNorm2d(512, eps=1e-05, momentum=0.1, affine=True, track_running_stats=True)\n                (act_fn): Mish(inplace=True)\n              )\n              (conv_1): ConvBnAct(\n                (conv): Conv2d(512, 512, kernel_size=(3, 3), stride=(1, 1), padding=(1, 1), bias=False)\n                (bn): BatchNorm2d(512, eps=1e-05, momentum=0.1, affine=True, track_running_stats=True)\n              )\n            )\n            (id_conv): Sequential(\n              (pool): AvgPool2d(kernel_size=2, stride=2, padding=0)\n              (id_conv): ConvBnAct(\n                (conv): Conv2d(256, 512, kernel_size=(1, 1), stride=(1, 1), bias=False)\n                (bn): BatchNorm2d(512, eps=1e-05, momentum=0.1, affine=True, track_running_stats=True)\n              )\n            )\n            (act_fn): Mish(inplace=True)\n          )\n          (bl_1): ResBlock(\n            (convs): Sequential(\n              (conv_0): ConvBnAct(\n                (conv): Conv2d(512, 512, kernel_size=(3, 3), stride=(1, 1), padding=(1, 1), bias=False)\n                (bn): BatchNorm2d(512, eps=1e-05, momentum=0.1, affine=True, track_running_stats=True)\n                (act_fn): Mish(inplace=True)\n              )\n              (conv_1): ConvBnAct(\n                (conv): Conv2d(512, 512, kernel_size=(3, 3), stride=(1, 1), padding=(1, 1), bias=False)\n                (bn): BatchNorm2d(512, eps=1e-05, momentum=0.1, affine=True, track_running_stats=True)\n              )\n            )\n            (act_fn): Mish(inplace=True)\n          )\n        )\n      )\n      (head): Sequential(\n        (pool): AdaptiveAvgPool2d(output_size=1)\n        (flat): Flatten(start_dim=1, end_dim=-1)\n        (fc): Linear(in_features=512, out_features=1000, bias=True)\n      )\n    )<pre>\n</details>\n\n\n\n## MXResNet50\n\nNow lets make MxResNet50\n\n\n```python\nmc.expansion = 4\nmc.layers = [3,4,6,3]\nmc.name = 'mxresnet50'\n```\n\nNow we have mxresnet50 constructor.  \nWe can inspect every parts of it.  \nAnd after call it we got model.\n\n\n```python\nmc\n```\n<details open> <summary>output</summary>  \n    <pre>mxresnet50\n      in_chans: 3, num_classes: 1000\n      expansion: 4, groups: 1, dw: False, div_groups: None\n      act_fn: Mish, sa: False, se: False\n      stem sizes: [3, 32, 64, 64], stride on 0\n      body sizes [64, 128, 256, 512]\n      layers: [3, 4, 6, 3]<pre>\n</details>\n\n\n\n\n```python\n\nmc.stem.conv_1\n```\n<details> <summary>output</summary>  \n    <pre>ConvBnAct(\n      (conv): Conv2d(3, 32, kernel_size=(3, 3), stride=(1, 1), padding=(1, 1), bias=False)\n      (bn): BatchNorm2d(32, eps=1e-05, momentum=0.1, affine=True, track_running_stats=True)\n      (act_fn): Mish(inplace=True)\n    )<pre>\n</details>\n\n\n\n\n```python\n\nmc.body.l_0.bl_0\n```\n<details> <summary>output</summary>  \n    <pre>ResBlock(\n      (convs): Sequential(\n        (conv_0): ConvBnAct(\n          (conv): Conv2d(64, 64, kernel_size=(1, 1), stride=(1, 1), bias=False)\n          (bn): BatchNorm2d(64, eps=1e-05, momentum=0.1, affine=True, track_running_stats=True)\n          (act_fn): Mish(inplace=True)\n        )\n        (conv_1): ConvBnAct(\n          (conv): Conv2d(64, 64, kernel_size=(3, 3), stride=(1, 1), padding=(1, 1), bias=False)\n          (bn): BatchNorm2d(64, eps=1e-05, momentum=0.1, affine=True, track_running_stats=True)\n          (act_fn): Mish(inplace=True)\n        )\n        (conv_2): ConvBnAct(\n          (conv): Conv2d(64, 256, kernel_size=(1, 1), stride=(1, 1), bias=False)\n          (bn): BatchNorm2d(256, eps=1e-05, momentum=0.1, affine=True, track_running_stats=True)\n        )\n      )\n      (id_conv): Sequential(\n        (id_conv): ConvBnAct(\n          (conv): Conv2d(64, 256, kernel_size=(1, 1), stride=(1, 1), bias=False)\n          (bn): BatchNorm2d(256, eps=1e-05, momentum=0.1, affine=True, track_running_stats=True)\n        )\n      )\n      (act_fn): Mish(inplace=True)\n    )<pre>\n</details>\n\n\n\nWe can get model direct way:\n\n\n```python\nmc = ModelConstructor(name=\"MxResNet\", act_fn=Mish, layers=[3,4,6,3], expansion=4, stem_sizes=[32,64,64])\nmodel = mc()\n```\n\nOr create with config:\n\n\n```python\nmc = ModelConstructor.from_cfg
…
on=1\n      groups=1\n      bn_1st=True\n      zero_bn=True\n      stem_sizes=[32, 32, 64]\n      stem_pool=\"MaxPool2d {'kernel_size': 3, 'stride': 2, 'padding': 1}\"\n      init_cnn='init_cnn'\n      make_stem='make_stem'\n      make_layer='make_layer'\n      make_body='make_body'\n      make_head='make_head')\n    <pre>\n</details>\n\nLet see what we have.\n\n\n```python\n\nmc.body.l_1.bl_0\n```\n<details> <summary>output</summary>  \n    <pre>YaResBlock(\n      (reduce): AvgPool2d(kernel_size=2, stride=2, padding=0)\n      (convs): Sequential(\n        (conv_0): ConvBnAct(\n          (conv): Conv2d(64, 128, kernel_size=(3, 3), stride=(1, 1), padding=(1, 1), bias=False)\n          (bn): BatchNorm2d(128, eps=1e-05, momentum=0.1, affine=True, track_running_stats=True)\n          (act_fn): ReLU(inplace=True)\n        )\n        (conv_1): ConvBnAct(\n          (conv): Conv2d(128, 128, kernel_size=(3, 3), stride=(1, 1), padding=(1, 1), bias=False)\n          (bn): BatchNorm2d(128, eps=1e-05, momentum=0.1, affine=True, track_running_stats=True)\n        )\n      )\n      (id_conv): ConvBnAct(\n        (conv): Conv2d(64, 128, kernel_size=(1, 1), stride=(1, 1), bias=False)\n        (bn): BatchNorm2d(128, eps=1e-05, momentum=0.1, affine=True, track_running_stats=True)\n      )\n      (merge): ReLU(inplace=True)\n    )<pre>\n</details>\n\n\n\nLets create `Resnet34` like model constructor:\n\n\n```python\nclass YaResnet34(ModelConstructor):\n    block: type[nn.Module] = YaResBlock\n    layers: list[int] = [3, 4, 6, 3]\n```\n\n\n```python\nmc = YaResnet34()\nmc.print_cfg()\n```\n<details open> <s
…
