…
nstanceNorm2d(5, eps=1e-05, momentum=0.1, affine=True, track_running_stats=False)\n  (bn_c1): InstanceNorm2d(5, eps=1e-05, momentum=0.1, affine=True, track_running_stats=False)\n  (bn_g2): InstanceNorm2d(5, eps=1e-05, momentum=0.1, affine=True, track_running_stats=False)\n  (bn_c2): InstanceNorm2d(5, eps=1e-05, momentum=0.1, affine=True, track_running_stats=False)\n)\n\n```\n\n#### hGRUCell\n\n```python\n>>> import serrelabmodels.layers.hgru_base as hgru_base\n>>> h = hgru_base.hConvGRUCell(5, 5, 3)\n>>> h2 = hgru_base.hConvGRUCell(5, 5, 3, batchnorm = False)\n>>> h2\nhConvGRUCell(\n  (u1_gate): Conv2d(5, 5, kernel_size=(1, 1), stride=(1, 1))\n  (u2_gate): Conv2d(5, 5, kernel_size=(1, 1), stride=(1, 1))\n)\n>>> h\nhConvGRUCell(\n  (u1_gate): Conv2d(5, 5, kernel_size=(1, 1), stride=(1, 1))\n  (u2_gate): Conv2d(5, 5, kernel_size=(1, 1), stride=(1, 1))\n  (bn): ModuleList(\n    (0): BatchNorm2d(5, eps=1e-05, momentum=0.1, affine=True, track_running_stats=True)\n    (1): BatchNorm2d(5, eps=1e-05, momentum=0.1, affine=True, track_running_stats=True)\n    (2): BatchNorm2d(5, eps=1e-05, momentum=0.1, affine=True, track_running_stats=True)\n    (3): BatchNorm2d(5, eps=1e-05, momentum=0.1, affine=True, track_running_stats=True)\n  )\n)\n```\n\n\n#### hGRU Example (VGG 16)\n\n```python\n>>> import serrelabmodels.base_hgru as sl_hgru_ex\nagg\n>>> b = sl_hgru_ex.BasehGRU()\nimporting  serrelabmodels.models.vgg_16 . VGG_16\n>>> b\nBasehGRU(\n  (base_ff): VGG_16(\n    (conv1_1): Conv2d(3, 64, kernel_size=(3, 3), stride=(1, 1), padding=(1, 1))\n    (conv1_2): Conv2d(64, 64, kernel_size=(3, 3), stride=(1, 1), padding=(1, 1))\n    (maxpool1): MaxPool2d(kernel_size=2, stride=2, padding=0, dilation=1, ceil_mode=False)\n    (conv2_1): Conv2d(64, 128, kernel_size=(3, 3), stride=(1, 1), padding=(1, 1))\n    (conv2_2): Conv2d(128, 128, kernel_size=(3, 3), stride=(1, 1), padding=(1, 1))\n    (maxpool2): MaxPool2d(kernel_size=2, stride=2, padding=0, dilation=1, ceil_mode=False)\n    (conv3_1): Conv2d(128, 256, kernel_size=(3, 3), stride=(1, 1), padding=(1, 1))\n    (conv3_2): Conv2d(256, 256, kernel_size=(3, 3), stride=(1, 1), padding=(1, 1))\n    (conv3_3): Conv2d(256, 256, kernel_size=(3, 3), stride=(1, 1), padding=(1, 1))\n    (maxpool3): MaxPool2d(kernel_size=2, stride=2, padding=0, dilation=1, ceil_mode=False)\n    (conv4_1): Conv2d(256, 512, kernel_size=(3, 3), stride=(1, 1), padding=(1, 1))\n    (conv4_2): Conv2d(512, 512, kernel_size=(3, 3), stride=(1, 1), padding=(1, 1))\n    (conv4_3): Conv2d(512, 512, kernel_size=(3, 3), stride=(1, 1), padding=(1, 1))\n    (maxpool4): MaxPool2d(kernel_size=2, stride=2, padding=0, dilation=1, ceil_mode=False)\n    (conv5_1): Conv2d(512, 512, kernel_size=(3, 3), stride=(1, 1), padding=(1, 1))\n    (conv5_2): Conv2d(512, 512, kernel_size=(3, 3), stride=(1, 1), padding=(1, 1))\n    (conv5_3): Conv2d(512, 512, kernel_size=(3, 3), stride=(1, 1), padding=(1, 1))\n  )\n  ...\n  \n    (2): Sequential(\n      (0): MaxPool2d(kernel_size=2, stride=2, padding=0, dilation=1, ceil_mode=False)\n      (1): Conv2d(512, 512, kernel_size=(3, 3), stride=(1, 1), padding=(1, 1))\n      (2): ReLU()\n      (3): Conv2d(512, 512, kernel_size=(3, 3), stride=(1, 1), padding=(1, 1))\n      (4): ReLU()\n      (5): Conv2d(512, 512, kernel_size=(3, 3), stride=(1, 1), padding=(1, 1))\n      (6): ReLU()\n    )\n  )\n)\n\n```\n\n\n### GamaNet\n\n```python\n>>> import serrelabmodels.base_gamanet as sl_gnet\n>>> g = sl_gnet.BaseGN()\nimporting  serrelabmodels.models.vgg_16 . VGG_16\n>>> g\nBaseGN(\n  (base_ff): VGG_16(\n    (conv1_1): Conv2d(3, 64, kernel_size=(3, 3), stride=(1, 1), padding=(1, 1))\n    (conv1_2): Conv2d(64, 64, kernel_size=(3, 3), stride=(1, 1), padding=(1, 1))\n    (maxpool1): MaxPool2d(kernel_size=2, stride=2, padding=0, dilation=1, ceil_mode=False)\n    (conv2_1): Conv2d(64, 128, kernel_size=(3, 3), stride=(1, 1), padding=(1, 1))\n    (conv2_2): Conv2d(128, 128, kernel_size=(3, 3), stride=(1, 1), padding=(1, 1))\n    (maxpool2): MaxPool2d(kernel_size=2, stride=2, padding=0, dilation=1, ceil_mode=False)\n    (conv3_1): Conv2d(128, 256, kernel_size=(3, 3), stride=(1, 1), padding=(1, 1))\n    (conv3_2): Conv2d(256, 256, kernel_size=(3, 3), stride=(1, 1), padding=(1, 1))\n    (conv3_3): Conv2d(256, 256, kernel_size=(3, 3), stride=(1, 1), padding=(1, 1))\n    (maxpool3): MaxPool2d(kernel_size=2, stride=2, padding=0, dilation=1, ceil_mode=False)\n    (conv4_1): Conv2d(256, 512, kernel_size=(3, 3), stride=(1, 1), padding=(1, 1))\n    (conv4_2): Conv2d(512, 512, kernel_size=(3, 3), stride=(1, 1), padding=(1, 1))\n    (conv4_3): Conv2d(512, 512, kernel_size=(3, 3), stride=(1, 1), padding=(1, 1))\n    (maxpool4): MaxPool2d(kernel_size=2, stride=2, padding=0, dilation=1, ceil_mode=False)\n    (conv5_1): Conv2d(512, 512, kernel_size=(3, 3), stride=(1, 1), padding=(1, 1))\n    (conv5_2): Conv2d(512, 512, kernel_size=(3, 3), stride=(1, 1), padding=(1, 1))\n    (conv5_3): Conv2d(512, 512, kernel_size=(3, 3), stride=(1, 1), padding=(1, 1))\n  )\n    ...\n    \n    (2): Sequential(\n      (0): InstanceNorm2d(256, eps=1e-05, momentum=0.1, affine=True, track_running_stats=False)\n      (1): Conv2dSamePadding(256, 128, kernel_size=(1, 1), stride=(1, 1), padding_mode=reflect)\n      (2): ReLU()\n      (3): Conv2dSamePadding(128, 128, kernel_size=(1, 1), stride=(1, 1), padding_mode=reflect)\n      (4): ReLU()\n    )\n  )\n  (readout_norm): InstanceNorm2d(128, eps=1e-05, momentum=0.1, affine=True, track_running_stats=False)\n  (readout_conv): Conv2dSamePadding(128, 1, kernel_size=(1, 1), stride=(1, 1), padding_mode=reflect)\n)\n```",
…
