…
  Bases: \"object\"\n\n   å…³é”®è¯æŠ½å–ç®—æ³•ï¼ŒåŸºäºtf-idf\n\n   get_tf_idf(sentence_list, model_file)\n\n      åŠ è½½tf-idfæ¨¡å‹ï¼Œè¿”å›sentence_listå¯¹åº”çš„ç‰¹å¾å’Œæ¨¡å‹\n\n      Parameters:\n         * **sentence_list** -- å¥å­åˆ—è¡¨ï¼ˆåˆ†è¯åï¼‰\n\n         * **model_file** -- tf-idfæ¨¡å‹æ–‡ä»¶\n\n      Returns:\n         tf_idf_model(æ¨¡å‹å®ä¾‹), tfidf_feature(sentence_listå¯¹åº”çš„tf-\n         idfç‰¹å¾)\n\n      >>> tf_idf_model, tfidf_feature = kwe.get_tf_idf(['æ°ä¼¦ æ˜¯ å°æ¹¾ æ­Œæ‰‹', 'ä¸ƒé‡Œé¦™ æ˜¯ æ°ä¼¦ åˆ›ä½œ'], file_conf.tf_idf_file_path)\n      >>> print(tfidf_feature)\n        (0, 4)        0.6316672017376245\n        (0, 3)        0.4494364165239821\n        (0, 2)        0.6316672017376245\n        (1, 3)        0.4494364165239821\n        (1, 1)        0.6316672017376245\n        (1, 0)        0.6316672017376245\n\n   get_topk_keywords(data_list, topk=200)\n\n      å¾—åˆ°topkä¸ªå…³é”®è¯\n\n      Parameters:\n         * **data_list** -- å¥å­åˆ—è¡¨ï¼ˆåˆ†è¯åï¼‰\n\n         * **topk** -- tf-idfé‡è¦åº¦æ’åºåå‰topk\n\n      Returns:\n         keywords\n\n      >>> keywords = kwe.get_topk_keywords(['æ°ä¼¦ æ˜¯ å°æ¹¾ æ­Œæ‰‹', 'ä¸ƒé‡Œé¦™ æ˜¯ æ°ä¼¦ åˆ›ä½œ'], topk=1)\n      >>> print(keywords)\n     
…
