…
Description\n\ntf2show prints tensorflow2's keras model pretty.\n\nBelow is the result of `summary` function provided in tensorflow2.\n\nIt's not pretty. In addition, some output has been omitted.\n\n```\nModel: \"mobilenet_1.00_256\"\n_________________________________________________________________\nLayer (type)                 Output Shape              Param #   \n=================================================================\ninput_1 (InputLayer)         [(None, 256, 256, 3)]     0         \n_________________________________________________________________\nconv1_pad (ZeroPadding2D)    (None, 257, 257, 3)       0         \n_________________________________________________________________\nconv1 (Conv2D)               (None, 128, 128, 32)      864       \n_________________________________________________________________\nconv1_bn (BatchNormalization (None, 128, 128, 32)      128       \n_________________________________________________________________\nconv1_relu (ReLU)            (None, 128, 128, 32)      0         \n_________________________________________________________________\nconv_dw_1 (DepthwiseConv2D)  (None, 128, 128, 32)      288       \n_________________________________________________________________\n.\n.\n.\n_________________________________________________________________\nreshape_2 (Reshape)          (None, 1000)              0         \n_________________________________________________________________\npredictions (Activation)     (None, 1000)              0         \n=================================================================\nTotal params: 4,253,864\nTrainable params: 4,231,976\nNon-trainable params: 21,888\n_________________________________________________________________\n```\n\nBelow is the output using tf2show.\n\nIt's pretty. All names are printed.\n\n```\n----------------------------------------------------------------------------------
…
