…
g. for text classification using `300` dimensional pretrained embedding):\n\n```python\n# [batch, embedding, timesteps], first dimension > 1 for BatchNorm1d to work\ntext_model = torchlayers.build(model, torch.randn(2, 300, 1))\n```\n\n* Finally, you can `print` both models after instantiation, provided below side\nby-side for readability (__notice different dimenstionality, e.g. `Conv2d` vs `Conv1d` after `torchlayers.build`__):\n\n```python\n                # MNIST CLASSIFIER                TEXT CLASSIFIER\n\n                Sequential(                       Sequential(\n                  (0): Conv1d(300, 64)              (0): Conv2d(3, 64)\n                  (1): ReLU()                       (1): ReLU()\n                  (2): BatchNorm1d(64)              (2): BatchNorm2d(64)\n                  (3): Conv1d(64, 128)              (3): Conv2d(64, 128)\n                  (4): ReLU()                       (4): ReLU()\n                  (5): Conv1d(128, 256)             (5): Conv2d(128, 256)\n                  (6): GlobalMaxPool()              (6): GlobalMaxPool()\n                  (7): Linear(256, 10)              (7): Linear(256, 10)\n                )                                 )\n```\n\nAs you can see both modules \"compiled\" into original `pytorch` layers.\n\n## Custom modules with shape inference capabilities\n\nUser can define any module and make it shape inferable with `torchlayers.infer`\nfunction:\n\n```python\n # Class defined with in_features\n # It might be a good practice to use _ prefix and Impl as 
…
