…
, 2))\n            x = torch.relu(torch.max_pool2d(self.conv3(x),2))\n            x = x.view(-1,3*3*64 )\n            x = torch.relu(self.fc1(x))\n            x = self.fc2(x)\n            return torch.log_softmax(x, dim=1)\n\n    cnn = CNN().to(device)\n    describe(model=cnn, input_shape=(1, 28, 28), batch_size=1000)\n    ```\n    ```\n    -------------------------------------------------------------\n                             CNN\n    -------------------------------------------------------------\n    =============================================================\n\n    CNN(\n        (conv1): Conv2d(1, 32, kernel_size=(5, 5), stride=(1, 1))\n        (conv2): Conv2d(32, 32, kernel_size=(5, 5), stride=(1, 1))\n        (conv3): Conv2d(32, 64, kernel_size=(5, 5), stride=(1, 1))\n        (fc1): Linear(in_features=576, out_features=256, bias=True)\n        (fc2): Linear(in_features=256, out_features=10, bias=True)\n    )\n\n    =============================================================\n    -------------------------------------------------------------\n    Total parameters : 228,010\n    Trainable parameters : 228,010\n    Non-trainable parameters : 0\n    -------------------------------------------------------------\n    Model device : CPU\n    Batch size : 1
…
ion import models\n    from torchdescribe import describe\n\n    device = 'cuda' if torch.cuda.is_available() else 'cpu'\n    vgg16 = models.vgg16().to(device)\n\n    describe(vgg16, (3, 224, 224), 100)\n    ```\n    ```\n    ------------------------------------------------------------------------------------\n                                            VGG\n    ------------------------------------------------------------------------------------\n    ====================================================================================\n\n    VGG(\n        (features): Sequential(\n            (0): Conv2d(3, 64, kernel_size=(3, 3), stride=(1, 1), padding=(1, 1))\n            (1): ReLU(inplace=True)\n            (2): Conv2d(64, 64, kernel_size=(3, 3), stride=(1, 1), padding=(1, 1))\n            (3): ReLU(inplace=True)\n            (4): MaxPool2d(kernel_size=2, stride=2, padding=0, dilation=1, ceil_mode=False)\n            (5): Conv2d(64, 128, kernel_size=(3, 3), stride=(1, 1), padding=(1, 1))\n            (6): ReLU(inplace=True)\n            (7): Conv2d(128, 128, kernel_size=(3, 3), stride=(1, 1), padding=(1, 1))\n            (8): ReLU(inplace=True)\n            (9): MaxPool2d(kernel_size=2, stride=2, padding=0, dilation=1, ceil_mode=False)\n            (10): Conv2d(128, 256, kernel_size=(3, 3), stride=(1, 1), padding=(1, 1))\n            (11): ReLU(inplace=True)\n            (12): Conv2d(256, 256, kernel_size=(3, 3), stride=(1, 1), padding=(1, 1))\n            (13): ReLU(inplace=True)\n            (14): Conv2d(256, 256, kernel_size=(3, 3), stride=(1, 1), padding=(1, 1))\n            (15): ReLU(inplace=True)\n            (16): MaxPool2d(kernel_size=2, stride=2, padding=0, dilation=1, ceil_mode=False)\n            (17): Conv2d(256, 512, kernel_size=(3, 3), stride=(1, 1), padding=(1, 1))\n            (18): ReLU(inplace=True)\n            (19): Conv2d(512, 512, kernel_size=(3, 3), stride=(1, 1), padding=(1, 1))\n            (20): ReLU(inplace=True)\n            (21): Conv2d(512, 512, kernel_size=(3, 3), stride=(1, 1), padding=(1, 1))\n            (22): ReLU(inplace=True)\n            (23): MaxPool2d(kernel_size=2, stride=2, padding=0, dilation=1, ceil_mode=False)\n            (24): Conv2d(512, 512, kernel_size=(3, 3), stride=(1, 1), padding=(1, 1))\n            (25): ReLU(inplace=True)\n            (26): Conv2d(512, 512, kernel_size=(3, 3), stride=(1, 1), padding=(1, 1))\n            (27): ReLU(inplace=True)\n            (28): Conv2d(512, 512, kernel_size=(3, 3), stride=(1, 1), padding=(1, 1))\n            (29): ReLU(inplace=True)\n            (30): MaxPool2d(kernel_size=2, stride=2, padding=0, dilation=1, ceil_mode=False)\n        )\n        (avgpool): AdaptiveAvgPool2d(output_size=(7, 7))\n        (classifier): Sequential(\n            (0): Linear(in_features=25088, out_features=4096, bias=True)\n            (1): ReLU(inplace=True)\n            (2): Dropout(p=0.5, inplace=False)\n            (3): Linear(in_features=4096, out_features=4096, bias=True)\n            (4): ReLU(inplace=True)\n            (5): Dropout(p=0.5, inplace=False)\n            (6): Linear(in_features=4096, out_features=1000, bias=True)\n        )\n    )\n\n    ====================================================================================\n    ------------------------------------------------------------------------------------\n    Total parameters : 138,357,544\n    Trainable parameters : 138,357,544\n    Non-trainable parameters : 0\n    -------------------------------------
…
