…
- [albumentations](https://github.com/albumentations-team/albumentations) is also recommended as cv2 backend transform tools.\n\n#### 1. Show your model parameters and FLOPs.\n```python\nimport torch\nfrom torchtoolbox.tools import summary\nfrom torchvision.models.mobilenet import mobilenet_v2\nmodel = mobilenet_v2()\nsummary(model, torch.rand((1, 3, 224, 224)))\n``` \nHere are some short outputs.\n```\n        Layer (type)               Output Shape          Params    FLOPs(M+A) #\n================================================================================\n            Conv2d-1          [1, 64, 112, 112]            9408       235225088\n       BatchNorm2d-2          [1, 64, 112, 112]             256         1605632\n              ReLU-3          [1, 64, 112, 112]               0               0\n         MaxPool2d-4            [1, 64, 56, 56]               0               0\n          ...                      ...                      ...              ...\n          Linear-158                  [1, 1000]         1281000         2560000\n     MobileNetV2-159                  [1, 1000]               0               0\n================================================================================\n        Total parameters: 3,538,984  3.5M\n    Trainable parameters: 3,504,872\nNon-trainable parameters: 34,112\nTotal flops(M)  : 305,252,872  305.3M\nTotal flops(M+A): 610,505,744  610.5M\n--------------------------------------------------------------------------------\nParameters size (MB): 13.5
…
