…
 @nmhkahn. This project addresses all of the issues and pull requests left on the original projects by introducing a completely new API.\n\n# Usage\n`pip install torch-summary`\n\n# How To Use\n```python\nfrom torchsummary import summary\n\nmodel = ConvNet()\nsummary(model, (1, 28, 28))\n```\n```\n==========================================================================================\nLayer (type:depth-idx)                   Output Shape              Param #\n==========================================================================================\n├─Conv2d: 1-1                            [-1, 10, 24, 24]          260\n├─Conv2d: 1-2                            [-1, 20, 8, 8]            5,020\n├─Dropout2d: 1-3                         [-1, 20, 8, 8]            --\n├─Linear: 1-4                            [-1, 50]                  16,050\n├─Linear: 1-5                            [-1, 10]                  510\n==========================================================================================\nTotal params: 21,840\nTrainable params: 21,840\nNon-trainable params: 0\n==========================================================================================\nInput size (MB): 0.00\nForward/backward pass size (MB): 0.05\nParams size (MB): 0.08\nEstimated Total Size (MB): 0.14\n======================
…
your_model, (3, 28, 28), verbose=0)\nsummary_str = str(model_stats)\n# summary_str contains the string representation of the summary. See below for examples.\n```\n\n## ResNet\n```python\nimport torchvision\n\nmodel = torchvision.models.resnet50()\nsummary(model, (3, 224, 224), depth=3)\n```\n```\n==========================================================================================\nLayer (type:depth-idx)                   Output Shape              Param #\n==========================================================================================\n├─Conv2d: 1-1                            [-1, 64, 112, 112]        9,408\n├─BatchNorm2d: 1-2                       [-1, 64, 112, 112]        128\n├─ReLU: 1-3                              [-1, 64, 112, 112]        --\n├─MaxPool2d: 1-4                         [-1, 64, 56, 56]          --\n├─Sequential: 1-5                        [-1, 256, 56, 56]         --\n|    └─Bottleneck: 2-1                   [-1, 256, 56, 56]         --\n|    |    └─Conv2d: 3-1                  [-1, 64, 56, 56]          4,096\n|    |    └─BatchNorm2d: 3-2             [-1, 64, 56, 56]          128\n|    |    └─ReLU: 3-3                    [-1, 64, 56, 56]          --\n|    |    └─Conv2d: 3-4                  [-1, 64, 56, 56]          36,864\n|    |    └─BatchNorm2d: 3-5             [-1, 64, 56, 56]          128\n|    |    └─ReLU: 3-6                    [-1, 64, 56, 56]          --\n|    |    └─Conv2d: 3-7                  [-1, 256, 56, 56]         16,384\n|    |    └─BatchNorm2d: 3-8             [-1, 256, 56, 56]         512\n|    |    └─Sequential: 3-9              [-1, 256, 56, 56]         --\n|    |    └─ReLU: 3-10                   [-1, 256, 56, 56]         --\n\n  ...\n  ...\n  ...\n\n├─AdaptiveAvgPool2d: 1-9                 [-1, 2048, 1, 1]          --\n├─Linear: 1-10                           [-1, 1000]                2,049,000\n==========================================================================================\nTotal params: 60,192,808\nTrainable params: 60,192,808\nNon-trainable params: 0\nTotal mult-adds (G): 11.63\n==========================================================================================\nInput size (MB): 0.57\nForward/backward pass size (MB): 344.16\nParams size (MB): 229.62\nEstimated Total
…
n        for l in self._sequential:\n            out = l(out)\n\n        out = self._sequential(x)\n        for l in self._sequential:\n            out = l(out)\n        return out\n\nsummary(ContainerModule(), (5,))\n```\n```\n==========================================================================================\nLayer (type:depth-idx)                   Output Shape              Param #\n==========================================================================================\n├─ModuleList: 1                          []                        --\n|    └─Linear: 2-1                       [-1, 5]                   30\n|    └─ContainerChildModule: 2-2         [-1, 5]                   --\n|    |    └─Sequential: 3-1              [-1, 5]                   --\n|    |    |    └─Linear: 4-1             [-1, 5]                   30\n|    |    |    └─Linear: 4-2             [-1, 5]                   30\n|    |    └─Linear: 3-2                  [-1, 5]                   30\n|    |    └─Sequential: 3                []                        --\n|    |    |    └─Linear: 4-3             [-1, 5]                   (recursive)\n|    |    |    └─Linear: 4-4             [-1, 5]                   (recursive)\n|    |    └─Sequential: 3-3              [-1, 5]                   (recursive)\n|    |    |    └─Linear: 4-5             [-1, 5]                   (recursive)\n|    |    |    └─Linear: 4-6             [-1, 5]                   (recursive)\n|    |    |    └─Linear: 4-7             [-1, 5]                   (recursive)\n|    |    |    └─Linear: 4-8             [-1, 5]                   (recursive)\n|    └─Linear: 2-3                       [-1, 5]                   30\n==========================================================================================\nTotal params: 150\nTrainable params: 150\nNon-trainable params: 0\nTotal mult-adds (M): 0.00\n==========================================================================================\nInput size (MB): 0.00\nForward/backward pass size (MB): 0.00\nParams size (MB): 0.00\nEstimated Total Size (MB): 0.00\n==========================================================================================\n```\n\n# Other Examples\n```\n================================================================\n        Layer (type)               Output Shape         Param #\n================================================================\n            Conv2d-1            [-1, 1, 16, 16]              10\n              ReLU-2            [-1, 1, 16, 16]               0\n            Conv2d-3            [-1, 1, 28, 28]              10\n              ReLU-4            [-1, 1, 28, 28]               0\n================================================================\nTotal params: 20\nTrainable params: 20\nNon-trainable params: 0\n================================================================\nInput size (MB): 0.77\nForward/backward pass size (MB): 0.02\nParams size (MB): 0.00\nEstimated Total Size (MB): 0.78\n================================================================\n```\n\n# Future 
…
