…
oftmax\"\n)\n\nmodel.build((None, 224, 224, 3))\nprint(model.summary())\n```\n```\nModel: \"van_b0\"\n_________________________________________________________________\n Layer (type)                Output Shape              Param #   \n=================================================================\n patch_embed1 (OverlapPatchE  ((None, 32, 56, 56),     4864      \n mbed)                        (),                                \n                              ())                                \n                                                                 \n block1/0 (Block)            (None, 32, 56, 56)        25152     \n                                                                 \n block1/1 (Block)            (None, 32, 56, 56)        25152     \n                                                                 \n block1/2 (Block)            (None, 32, 56, 56)        25152     \n                                                                 \n norm1 (LayerNorm_)          (None, 3136, 32)          64        \n                                                                 \n patch_embed2 (OverlapPatchE  ((None, 64, 28, 28),     18752     \n mbed)                        (),                                \n                              ())                                \n                                                                 \n block2/0 (Block)            (None, 64, 28, 28)        89216     \n                                                                 \n block2/1 (Block)            (None, 64, 28, 28)        89216     \n                                                                 \n block2/2 (Block)            (None, 64, 28, 28)        89216     \n                                                                 \n norm2 (LayerNorm_)          (None, 784, 64)           128       \n                                                                 \n patch_embed3 (OverlapPatchE  ((None, 160, 14, 14),    92960     \n mbed)                        (),                                \n                              ())                                \n                                                                 \n block3/0 (Block)            (None, 160, 14, 14)       303040    \n                                                                 \n block3/1 (Block)            (None, 160, 14, 14)       303040    \n                                                                 \n block3/2 (Block)            (None, 160, 14, 14)       303040    \n                                                                 \n block3/3 (Block)            (None, 160, 14, 14)       303040    \n                                                                 \n block3/4 (Block)            (None, 160, 14, 14)       303040    \n                                                                 \n norm3 (LayerNorm_)          (None, 196, 160)          320       \n                                                                 \n patch_embed4 (OverlapPatchE  ((None, 256, 7, 7),      369920    \n mbed)                        (),                                \n                              ())                                \n                                                                 \n block4/0 (Block)            (None, 256, 7, 7)         755200    \n                                                                 \n block4/1 (Block)            (None, 256, 7, 7)         755200    \n                                                                 \n norm4 (LayerNorm_)          (None, 49, 256)           512       \n                                                                 \n head (Linear_)              (None, 1000)              257000    \n                                                                 \n pred (Activation)           (None, 1000)              0         \n                                                                 \n=================================================================\nTotal params: 4,113,224\nTrainable params: 4,105,800\nNon-trainable params: 7,424\n_________________________________________________________________\n```\n- Train from scratch the model.\n```python\n# Example\nmodel.compile(\n    optimizer=\"sgd\",\n    l
…
